Double_Pendulum/FFNN/FFNN_model.pth (torch, 275110 bytes, 6 tensors)

model.0.weight f4 [256, 4]
0.0028077508 -0.00044544143 -0.00033463445 0.0037667858 1.5671246 -0.34986284 -0.440726 -0.6334352
0.21895732 0.007570432 -0.038686033 -0.012201645 6.2440144e-05 -0.0026291627 0.0030633283 0.0028771933
3.5962497e-05 -0.0029141044 -0.00057740236 -0.0027661696 -0.00030931935 0.0015659498 -0.00721354 0.004231848
-0.09834459 0.1243799 -0.06799017 0.08272695 0.19327728 0.040076952 0.051954065 0.004839621
0.18108177 0.10922875 0.05285174 0.0040082787 0.0021559624 0.0023231541 0.0075325305 -0.0070969793
-0.0006714916 -0.002545032 -0.007949337 0.0046211137 0.0017330109 -0.002054861 -0.0015290274 0.0016350849
-1.5171402 -0.054154333 0.31844914 0.10353916 -0.17509505 -0.047535785 0.04610927 -0.015869899
0.17966312 0.4454842 -0.728296 0.8052272 1.6050017 0.15786585 -0.020764519 0.57589495
0.097555 -0.10916664 -0.12206832 0.040928017 0.014339018 -0.052999627 -0.062239464 -0.16361783
-0.0011909836 -0.00026644254 0.0008495779 0.01135476 -0.018516824 0.110217795 0.039318528 -0.009295663
0.20231985 0.02008521 -0.06777016 0.0032918802 -0.00016682956 -0.00035090672 -0.0027437718 -0.006400106
0.21807376 -0.0024654656 0.009803318 0.04159184 -0.00031362957 -0.00059340807 -0.0025661406 -3.400682e-05
-0.0010182412 0.00022937477 0.003959731 -0.003111808 0.0012398189 -0.003544128 0.0016647131 0.007148544
0.0012940235 -0.16844653 -0.0224618 -0.04051533 -0.1234577 1.3304162 0.43233472 -0.41907993
0.22321779 -0.03623207 0.001360118 0.04263032 0.08912191 -0.14857244 -0.03628337 -0.06836933
-0.0008655869 -0.0002860992 0.00122083 0.0048021055 0.15674476 -0.12424566 -0.05563793 0.083209924
-0.00215636 0.0012199038 -0.0015209978 -0.004432591 -0.921777 1.5792146 0.08489143 0.22956972
0.0005317673 -0.0011565345 0.0024158717 -0.0032209167 0.13155045 -0.08787326 0.031076375 0.052946065
0.00044110764 -0.0008236169 -0.0028229544 -0.0046176426 -0.18756528 -0.021263614 -0.052560385 0.05080306
0.0010397516 0.00082285504 0.0022717435 0.0013481533 -0.22545429 0.02569775 -0.01738267 0.01453177
-2.9210933e-06 0.00053803937 0.008785475 -0.005292872 -0.00082631444 0.0013429028 0.002813646 -0.0021807218
0.2185611 -0.019281857 0.025690446 0.037936404 -0.0008329298 0.0002043097 0.004585025 -0.006657402
-0.0011694253 0.0014375147 -0.0040883576 -0.0049702073 0.0009420061 -0.0027079447 -0.006559433 -0.0010132017
-0.0009420823 -0.0021995273 -0.008734761 0.0016678192 -2.1885314 -0.07762242 0.36002898 0.68952626
0.22107957 -0.0058446047 -0.021856297 -0.02035897 -0.18288611 -0.083654255 0.06048359 -0.07967485
0.00083948503 0.0012183938 -0.00020121026 -0.0002962086 0.0015475583 0.0005985551 0.0039008814 -0.0070707467
0.0006493283 -0.00030629468 0.00013463842 0.0037473522 0.0014089356 0.00101057 0.0051714214 -0.0078189615
0.0009236623 0.0029406957 0.0035091275 0.0048938254 -1.758282 0.10898395 0.07516879 -0.34324867
-0.21845661 0.031192504 -0.028082807 -0.013754365 0.14521037 0.06705799 -0.012398076 0.093204185
-0.19785112 -0.036103055 0.003716174 0.06581428 0.0024511109 -0.0011901954 0.0035634332 0.0008938946
0.0015107552 0.0003798548 0.00087206427 -0.0032944113 0.2201915 -0.036310226 0.022879966 0.010674623
0.023589185 -0.05523298 0.020188399 0.1211994 0.0014233985 0.18494241 -0.008045782 0.0065922104
00000000: 3e02 383b 238a e9b9 e071 afb9 2edc 763b
00000010: 8a97 c83f 3921 b3be d7a6 e1be cf28 22bf
00000020: 5936 603e 6311 f83b 3f75 1ebd 69e9 47bc
00000030: 4cf2 8238 084e 2cbb 1fc2 483b 4b8f 3c3b
00000040: 70d6 1638 8ffa 3ebb d15c 17ba a048 35bb
00000050: 242c a2b9 8e40 cd3a 8f5f ecbb 50ab 8a3b
00000060: e368 c9bd e4ba fe3d 6e3e 8bbd bf6c a93d
00000070: 7bea 453e bb27 243d c9cd 543d af95 9e3b
00000080: 806d 393e 53b3 df3d 117b 583d e157 833b
00000090: 0c4b 0d3b 0f40 183b 72d3 f63b c78d e8bb
000000a0: 0a07 30ba 8dca 26bb f03d 02bc b66c 973b
000000b0: 3226 e33a d9aa 06bb a569 c8ba 5850 d63a
000000c0: a631 c2bf efd0 5dbd c40b a33e 570c d43d
000000d0: 1e4c 33be e2b4 42bd 13dd 3c3d 9701 82bc
000000e0: 9cf9 373e 8116 e43e 9b71 3abf 5f23 4e3f
000000f0: b270 cd3f 96a7 213e 5a1a aabc da6d 133f
00000100: eaca c73d c292 dfbd f5fe f9bd 23a4 273d
00000110: 33ee 6a3c 2316 59bd cfee 7ebd 6f8b 27be
00000120: c71a 9cba 50b1 8bb9 35b6 5e3a 5109 3a3c
00000130: 98b0 97bc deb9 e13d 770c 213d d64c 18bc
00000140: ef2c 4f3e bd89 a43c 15cb 8abd 96bc 573b
00000150: f8ee 2eb9 e7f9 b7b9 dad0 33bb fbb7 d1bb
00000160: ba4e 5f3e a693 21bb 199e 203c 355c 2a3d
00000170: a66e a4b9 f18e 1bba b22c 28bb 8ca2 0eb8
00000180: 8176 85ba 5284 7039 a2c0 813b 7aef 4bbb
00000190: 6b81 a23a 9a44 68bb 8132 da3a 553e ea3b
000001a0: 399c a93a 3f7d 2cbe cf01 b8bc 67f3 25bd
000001b0: 64d7 fcbd 144b aa3f fa5a dd3e a591 d6be
000001c0: 3493 643e 1468 14bd fd45 b23a 219d 2e3d
000001d0: 8c85 b63d 6023 18be df9d 14bd 3805 8cbd
000001e0: 8ee8 62ba 96ff 95b9 4204 a03a fb5a 9d3b
000001f0: b381 203e 8274 febd 99e4 63bd f769 aa3d
00000200: b851 0dbb 2ee5 9f3a 385c c7ba 453f 91bb
00000210: 94f9 6bbf b423 ca3f 8fdb ad3d 5314 6b3e
00000220: 4d66 0b3a dc96 97ba 9a53 1e3b 0416 53bb
00000230: 29b5 063e e5f6 b3bd e293 fe3c f9dd 583d
00000240: 7744 e739 ffe7 57ba 5101 39bb 984f 97bb
00000250: 1d11 40be 0831 aebc 8f49 57bd df16 503d
00000260: 4648 883a deb4 573a 88e1 143b 85b4 b03a
00000270: 7ddd 66be 1684 d23c 1a66 8ebc a916 6e3c
00000280: 0008 44b6 360b 0d3a f4f0 0f3c d46f adbb
00000290: 069d 58ba 5704 b03a 2665 383b 71ea 0ebb
000002a0: 7bce 5f3e fcf4 9dbc c574 d23c 3463 1b3d
000002b0: f958 5aba f83b 5639 fa3d 963b 5626 dabb
000002c0: 6747 99ba fd6a bc3a a1f7 85bb 1fdd a2bb
000002d0: f6f0 763a c677 31bb 83f0 d6bb 68cd 84ba
000002e0: 13f6 76ba f225 10bb 3e1c 0fbc ba9a da3a
000002f0: e610 0cc0 81f8 9ebd b855 b83e cb84 303f
00000300: af62 623e 1984 bfbb fa0b b3bc dbc7 a6bc
00000310: 7f46 3bbe ec52 abbd a4bd 773d 912c a3bd
00000320: e310 5c3a 83b2 9f3a f8fb 52b9 724c 9bb9
00000330: 71d7 ca3a 5ae8 1c3a eea5 7f3b b9b1 e7bb
00000340: af37 2a3a 2d96 a0b9 ba2d 0d39 2396 753b
00000350: 09ac b83a 1a75 843a 0775 a93b 1a1b 00bc
00000360: ed21 723a b0b8 403b 64f9 653b 625c a03b
00000370: 620f e1bf fa32 df3d 18f2 993d 4abe afbe
00000380: 17b3 5fbe 6c87 ff3c ea0d e6bc fd59 61bc
00000390: 07b2 143e b355 893d 4d21 4bbc d6e1 be3d
000003a0: 7c99 4abe cce0 13bd 0e8b 733b a3c9 863d
000003b0: d1a2 203b 5500 9cba 7d88 693b 4054 6a3a
000003c0: 8804 c63a 4027 c739 3e9b 643a 0de7 57bb
000003d0: e179 613e 08ba 14bd c46e bb3c 9de4 2e3c
000003e0: 1b3e c13c fa3b 62bd 2462 a53c 6437 f83d
000003f0: 5491 ba3a 8b61 3d3e 75d2 03bc 7803 d83b

model.0.bias f4 [256]
-0.0035913156 -0.0029359593 -0.0017225472 0.0012275815 0.0023675095 -0.0032322537 0.00083921774 0.008251089
0.006105886 -0.0014154563 0.0002609992 0.001284544 0.036743175 0.0016250687 -0.004310752 0.02203951
-0.0021669855 0.005869318 0.006443027 0.0036251012 -0.007863907 -0.0027646548 -0.0025764438 -0.00014907974
5.2490355e-05 0.0053493013 -0.00017089723 -0.0028254671 0.008376654 0.0060615367 0.0013588862 -0.005713908
0.0031527234 0.00611888 -0.0022280538 -0.0047221095 -0.004496602 -0.013956135 0.00038668455 -0.0036307364
-0.00012008683 0.003678094 0.003785646 -0.004929868 -3.9656967e-05 0.0054647345 0.002041703 -0.012095833
-0.004136117 -0.002283097 0.004987098 -0.0053459276 0.0030325125 -0.005572616 0.0037892018 0.01374205
-0.007132295 0.0049099247 -0.002367537 -0.0024644088 -0.005584489 -0.006657415 7.368656e-05 -0.0040550935
-0.0029107588 0.017004551 0.030603273 -0.00074402406 0.0047099404 -0.0025579443 0.0086601 0.00781718
0.0009388545 0.008357583 0.006030463 0.006772836 0.012812733 0.0020814321 0.010147961 -0.0043705786
-0.004188665 0.0020150268 -0.005145337 -0.08038143 0.0067100236 -0.007951429 -0.0005427294 0.026798569
-0.0039695306 0.004805046 -0.0025485735 -0.0057021244 -0.0006777022 -0.009789572 -0.012786261 -0.002245683
-0.0061797868 -0.001995922 0.013015656 -0.0023521096 0.0025221994 -0.0034173606 -0.0044152047 0.006456797
0.0010265415 0.00090646016 -0.0025981967 0.000496943 0.0043759043 -0.049683873 -0.0035456065 -0.00031733495
-0.01834226 0.0010956875 -0.0005471936 -0.0009737043 0.0053385035 0.0027534373 0.00032502992 -0.0006559401
0.0046316246 0.003416866 0.0016788861 -0.0003668564 0.0021913033 -0.0021517875 0.008565312 0.000987798
0.0020968576 -0.002835832 -0.00543678 -0.006155391 0.0101652695 0.005191404 -0.005643755 0.0035088644
0.0032349085 -0.034111824 -0.0035974474 0.0036247326 0.0038297116 0.00076771196 0.0003839177 -0.001848587
-0.0014465867 0.00077034556 0.0005030771 -0.009371624 -0.001959733 -0.00045868324 0.00070393755 0.003042775
0.004668555 -0.0036746573 -0.010822793 0.00026741592 -0.00017373689 0.0023321523 0.013355706 -0.0057466663
-0.0067153834 0.022103228 -0.0023328837 0.00050334336 -0.010916154 -0.0017468347 -0.0014764724 -0.004101491
0.0023896154 0.0023472663 -0.016395185 -0.01565684 -0.003980093 0.0021526958 -0.000676073 0.0021333033
-0.0010991476 -0.0015919408 0.033595834 -0.03224079 -0.0018759109 -0.0040478962 -0.0021160722 -0.0024476927
-0.01686585 -0.004791773 -0.0019573595 -0.003571343 0.0005185097 -0.0053753895 0.0026060313 0.0054795328
-0.0049591907 0.0016664056 -0.00656513 0.00290945 0.0040519745 -0.0052284678 0.0037267157 -0.0061580436
0.008858119 -0.012788495 0.0008433006 -0.0055676997 -0.0018122643 -0.005512969 0.0009250548 0.0054964214
0.0030643388 -0.037819188 -0.0027927314 -0.00017827252 -0.0022387276 -0.0019996387 0.0018297038 -0.0018929159
0.0031276126 0.0035751155 -0.0045440663 0.008026577 0.010832128 -0.0052944175 0.005507012 0.0046072784
0.0027434446 -0.0028480815 -0.0036432466 -0.00495938 -0.0011021742 -0.0021028882 4.0234125e-05 0.0012278985
0.0061907438 0.0027556987 -0.0010688335 -0.0001211747 -0.0072093806 -0.0067320727 0.0021738994 0.0004259057
-0.007391405 0.00246965 0.038912144 -0.00027636642 -0.0034028005 0.0049841492 0.004238602 0.0063921395
0.0014771945 -0.013467743 0.004379533 -5.899658e-05 0.0006444965 -0.0076998333 -0.0029672391 0.0035578588
00000000: 475c 6bbb 3969 40bb 18c7 e1ba cde6 a03a
00000010: 3828 1b3b 38d4 53bb f3fe 5b3a 932f 073c
00000020: e213 c83b d586 b9ba b8d6 8839 255e a83a
00000030: 0380 163d 4200 d53a 3541 8dbb 348c b43c
00000040: fc03 0ebb 6853 c03b 0720 d33b 1b93 6d3b
00000050: 9ed7 00bc 362f 35bb 8ed9 28bb 4a52 1cb9
00000060: 1729 5c38 3149 af3b e032 33b9 792b 39bb
00000070: 3c3e 093c db9f c63b a81c b23a bc3b bbbb
00000080: ec9d 4e3b e380 c83b 8a04 12bb edbb 9abb
00000090: 3b58 93bb 46a8 64bc ecbb ca39 a6f1 6dbb
000000a0: 20d7 fbb8 2d0c 713b 9a18 783b bb8a a1bb
000000b0: 5855 26b8 8411 b33b 18ce 053b 9a2d 46bc
000000c0: 4488 87bb 03a0 15bb cf6a a33b e42c afbb
000000d0: 1ebd 463b 7e9a b6bb 4254 783b 5626 613c
000000e0: 07b6 e9bb 6fe3 a03b ae28 1bbb eb81 21bb
000000f0: 17fe b6bb 7226 dabb 2c88 9a38 97e0 84bb
00000100: 6ec2 3ebb 214d 8b3c b7b3 fa3c 9c0a 43ba
00000110: d855 9a3b 2fa3 27bb 18e3 0d3c a113 003c
00000120: 751d 763a 3eee 083c 319b c53b abee dd3b
00000130: 7fec 513c a368 083b a243 263c 1237 8fbb
00000140: 1241 89bb 8a0e 043b 379a a8bb 059f a4bd
00000150: c2df db3b b646 02bc f445 0eba ac88 db3c
00000160: d612 82bb a673 9d3b f805 27bb e3d8 babb
00000170: d3a7 31ba 7164 20bc 777d 51bc 4f2c 13bb
00000180: cf7f cabb 04ce 02bb 9e3f 553c da25 1abb
00000190: 7c4b 253b ccf5 5fbb 6cad 90bb 8a93 d33b
000001a0: 048d 863a 839f 6d3a 8246 2abb 4845 023a
000001b0: bf63 8f3b 5181 4bbd 685d 68bb fa5f a6b9
000001c0: 8242 96bc 2c9d 8f3a 8a71 0fba 3040 7fba
000001d0: 9dee ae3b 0373 343b c768 aa39 65f3 2bba
000001e0: e2c4 973b 80ed 5f3b 120e dc3a a256 c0b9
000001f0: f89b 0f3b 0105 0dbb 8655 0c3c 0079 813a
00000200: 6f6b 093b 5ed9 39bb 0427 b2bb 2ab3 c9bb
00000210: 3b8c 263c a71c aa3b 40ef b8bb faf4 653b
00000220: c200 543b d7b8 0bbd 27c3 6bbb ec8c 6d3b
00000230: e6fb 7a3b 4740 493a 9048 c939 494c f2ba
00000240: 659b bdba 04f1 493a efe0 033a 718b 19bc
00000250: dd6e 00bb 6c7b f0b9 7388 383a 4b69 473b
00000260: aefa 983b 85d2 70bb 1552 31bc f533 8c39
00000270: 242d 36b9 06d7 183b e4d1 5a3c 884e bcbb
00000280: b80c dcbb d411 b53c 4be3 18bb cdf2 033a
00000290: abd9 32bc 0cf6 e4ba 3186 c1ba cd65 86bb
000002a0: 189b 1c3b 98d4 193b 324f 86bc c642 80bc
000002b0: 716b 82bb 3e14 0d3b 7e3a 31ba e4ce 0b3b
000002c0: 4611 90ba aba8 d0ba c99b 093d eb0e 04bd
000002d0: 20e1 f5ba 37a4 84bb cdad 0abb 7869 20bb
000002e0: 402a 8abc 4e04 9dbb 0b47 00bb 310d 6abb
000002f0: 99ec 073a 0924 b0bb f3c9 2a3b a78d b33b
00000300: b580 a2bb 4b6b da3a 4d20 d7bb 79ac 3e3b
00000310: 6dc6 843b 9153 abbb ea3b 743b 6ac9 c9bb
00000320: a521 113c d686 51bc f210 5d3a 4071 b6bb
00000330: 8089 edba 23a6 b4bb 607f 723a 531b b43b
00000340: 13d3 483b 4be8 1abd 4206 37bb aaee 3ab9
00000350: 9eb7 12bb 5f0c 03bb acd2 ef3a b81b f8ba
00000360: a2f8 4c3b 7c4c 6a3b 64e6 94bb e781 033c
00000370: 3d79 313c cb7c adbb 2a74 b43b a7f8 963b
00000380: 5dcb 333b e1a6 3abb 89c3 6ebb 4b82 a2bb
00000390: d476 90ba 9cd0 09bb 10c1 2838 70f1 a03a
000003a0: b9db ca3b f498 343b 1a18 8cba 2c1f feb8
000003b0: ab3c ecbb b898 dcbb fb77 0e3b 184c df39
000003c0: 9933 f2bb dad9 213b 5762 1f3d 46e5 90b9
000003d0: 8501 5fbb 1352 a33b f8e3 8a3b 2775 d13b
000003e0: 6c9e c13a cfa7 5cbc 3082 8f3b 1873 77b8
000003f0: 6ef3 283a e24e fcbb 0376 42bb f72a 693b

model.2.weight f4 [256, 256]
-0.015409668 0.36530513 -0.20693418 0.07813668 -0.0231534 -0.022339422 0.04303823 -0.18783192
-0.15637146 0.013559458 -0.023348752 0.016950876 -0.30920023 0.077988364 0.01016601 0.35723305
-0.13697164 -0.0681448 -0.039747566 -0.004475776 -0.25816116 -0.010002829 -0.23330359 0.015738944
0.0033990445 0.0067914873 -0.028682673 -0.12119714 -0.41139394 -0.12982577 0.0055837687 -0.15085304
-0.014260272 -0.058221374 0.01692619 -0.2435128 -0.004605949 0.12831503 -0.012720139 0.21377708
-0.012749302 0.021068899 -0.3550035 -0.021820724 0.010333487 -0.0028253829 0.014597555 -0.39922202
-0.32709417 0.22614804 -0.0007001009 -0.034701787 -0.04144224 0.0035449956 -0.013479888 -0.4247683
0.34646127 -0.15160033 0.09825126 0.035823304 -0.01768654 -0.27322286 -0.06765716 0.06912466
-0.26268703 0.08619137 -0.36532095 0.0063922764 0.10418752 0.22558634 0.291568 -0.123969086
-0.3350251 -0.281823 0.09954174 -0.03747444 -0.22717665 0.014117435 -0.25703937 0.30953187
0.02468458 0.014502489 -0.032697678 0.1510331 -0.010844134 0.12980075 0.056684077 -0.34424236
0.2758219 -0.0049322033 0.015013761 0.015365847 0.014869484 0.303084 0.17638505 0.0137837995
0.022995751 -0.14445414 0.3074657 0.11465289 0.012116517 0.19984879 -0.15594399 -0.11125765
-0.07996032 0.023568153 0.063928075 0.04564892 -0.098628014 -0.1618915 0.0013448185 -0.077708654
-0.11537774 0.10669328 0.004249871 -0.110509515 -0.01857371 -0.24752389 -0.0028205933 -0.0212107
0.019937823 -0.27466008 -0.02730906 -0.28650868 -0.2432137 0.05757442 -0.23842698 0.091393374
-0.37249812 -0.028035345 0.11572788 -0.036603667 0.09629635 0.1702312 0.04505214 0.0079689585
0.13856797 -0.42670065 0.03680725 0.029460626 -0.25304422 -0.13740925 0.027316172 -0.009277997
-0.21510209 -0.042322047 -0.25829816 0.27272788 -0.17177069 0.04808873 -0.014181637 0.2436003
0.03680167 0.031057654 -0.16795516 -0.011273012 0.20247726 0.038705017 0.113651134 -0.14609015
-0.01723007 -0.17023991 -0.014748721 -0.021344991 -0.36967644 0.051188003 0.021375544 -0.027661188
0.119589895 0.03572146 -0.53724575 0.1262499 0.004637373 -0.0032116207 0.05918276 0.022461459
-0.00568442 0.028499087 -0.21318643 0.4657426 -0.01430874 -0.082773365 -0.2498738 0.004797912
-0.051258497 0.030230284 0.020446 -0.011514841 -0.019283326 -0.08561025 0.019153703 -0.015177031
0.037324823 -0.036418237 -0.008992575 -0.095484935 -0.34786406 -0.41497046 -0.0004916909 0.0045540184
-0.026529498 -0.040940367 -0.07534704 0.19104268 -0.012293793 0.2240735 -0.22589156 -0.20017321
0.29898635 -0.23291764 -0.059781667 0.0025647352 0.03165438 -0.017692957 -0.004501673 0.039351307
0.0999232 0.0065840934 0.04792938 -0.1519605 0.13569057 0.23465659 0.020416155 -0.26511258
0.112211995 -0.028456481 0.24061081 -0.046575144 0.24809697 -0.12873283 -0.14800431 -0.24147207
-0.17450751 0.0848773 -0.01052494 0.21132912 -0.3817289 -0.12862916 0.31857914 -0.17894858
-0.23795648 0.035813116 -0.2911976 -0.006696966 0.028580021 0.013865848 -0.017913612 0.26805592
-0.13818362 -0.16089559 0.5964355 -0.01856757 -0.02386644 0.16601598 -0.016271679 0.31373844
00000000: d578 7cbc 4609 bb3e 8ee6 53be 2006 a03d
00000010: 33ac bdbc 2a01 b7bc db48 303d 0357 40be
00000020: d71f 20be 7d28 5e3c e245 bfbc 90dc 8a3c
00000030: 7e4f 9ebe 5db8 9f3d 568f 263c 40e7 b63e
00000040: 4b42 0cbe 808f 8bbd 58ce 22bd 88a9 92bb
00000050: b32d 84be e8e2 23bc 23e7 6ebe f5ee 803c
00000060: 81c2 5e3b 208b de3b edf7 eabc 3536 f8bd
00000070: 3aa2 d2be 0cf1 04be 0cf8 b63b 3879 1abe
00000080: eaa3 69bc 8979 6ebd cba8 8a3c 6b5b 79be
00000090: 80ed 96bb 0465 033e 2168 50bc 61e8 5a3e
000000a0: 73e2 50bc af98 ac3c 05c3 b5be 60c1 b2bc
000000b0: c94d 293c 0f2a 39bb 952a 6f3c d466 ccbe
000000c0: e378 a7be 5a93 673e fa86 37ba 7623 0ebd
000000d0: 57bf 29bd 2853 683b c0da 5cbc 3b7b d9be
000000e0: 5f63 b13e 1e3d 1bbe f537 c93d 75bb 123d
000000f0: 5de3 90bc dee3 8bbe d68f 8abd 3b91 8d3d
00000100: ea7e 86be 1a85 b03d 590b bbbe 4d76 d13b
00000110: 4460 d53d 1b00 673e 6748 953e 81e3 fdbd
00000120: 6988 abbe 1b4b 90be 8adc cb3d cc7e 19bd
00000130: ffa0 68be d04c 673c aa9a 83be f67a 9e3e
00000140: 5137 ca3c d99b 6d3c 00ee 05bd 6ca8 1a3e
00000150: 98ab 31bc 7dea 043e 902d 683d 8940 b0be
00000160: 8738 8d3e 529e a1bb 47fc 753c 09c1 7b3c
00000170: 239f 733c d32d 9b3e 489e 343e 72d5 613c
00000180: 9661 bc3c c9eb 13be 256c 9d3e 22cf ea3d
00000190: 5b84 463c 29a5 4c3e c8af 1fbe 0ddb e3bd
000001a0: 3cc2 a3bd 0012 c13c b9ec 823d 5dfa 3a3d
000001b0: 7cfd c9bd e3c6 25be 9f44 b03a b725 9fbd
000001c0: 2a4b ecbd 0282 da3d 8042 8b3b d052 e2bd
000001d0: e527 98bc e776 7dbe b4d9 38bb 10c2 adbc
000001e0: a554 a33c 3fa0 8cbe 40b7 dfbc 44b1 92be
000001f0: 030d 79be 28d3 6b3d 3426 74be 732c bb3d
00000200: 13b8 bebe 61aa e5bc bd02 ed3d baed 15bd
00000210: 0537 c53d 1651 2e3e 9888 383d 3c90 023c
00000220: c3e4 0d3e 8278 dabe 33c3 163d 6957 f13c
00000230: 038f 81be 03b5 0cbe 2ac6 df3c bd02 18bc
00000240: b943 5cbe e259 2dbd a83f 84be fda2 8b3e
00000250: a8e4 2fbe b0f8 443d 195a 68bc 5b72 793e
00000260: 59bd 163d 9f6c fe3c 70fc 2bbe 70b2 38bc
00000270: 3356 4f3e 2789 1e3d edc1 e83d a898 15be
00000280: 1326 8dbc 5f53 2ebe 9fa4 71bc b1db aebc
00000290: 3b46 bdbe 83aa 513d c41b af3c b799 e2bc
000002a0: 8ceb f43d aa50 123d f088 09bf a747 013e
000002b0: 1bf5 973b 0e7a 52bb 9f69 723d 1801 b83c
000002c0: 5f44 babb eb76 e93c 8b4d 5abe d075 ee3e
000002d0: 356f 6abc 1585 a9bd ebde 7fbe ce37 9d3b
000002e0: 6ef4 51bd 80a5 f73c 5f7e a73c bea8 3cbc
000002f0: 11f8 9dbc 6d54 afbd 3ae8 9c3c 15a9 78bc
00000300: eae1 183d 4a2b 15bd 9855 13bc 9b8d c3bd
00000310: 3d1b b2be 0277 d4be d1e4 00ba e039 953b
00000320: 6454 d9bc 16b1 27bd 8d4f 9abd b1a0 433e
00000330: e86b 49bc 8673 653e 1e50 67be 35fa 4cbe
00000340: bd14 993e f681 6ebe 9fdd 74bd 1e15 283b
00000350: 06a8 013d d2f0 90bc c582 93bb d62e 213d
00000360: 89a4 cc3d 61bf d73b 9951 443d 899b 1bbe
00000370: 78f2 0a3e d149 703e c83f a73c d6bc 87be
00000380: 67cf e53d 911d e9bc ae62 763e 94c5 3ebd
00000390: 220d 7e3e 8ad2 03be 718e 17be 7444 77be
000003a0: 19b2 32be 26d4 ad3d cc70 2cbc a966 583e
000003b0: f871 c3be 5db7 03be ce1c a33e 4c3e 37be
000003c0: ddaa 73be c6b0 123d da17 95be 3972 dbbb
000003d0: a620 ea3c 952d 633c 91bf 92bc a03e 893e
000003e0: 0280 0dbe d0c1 24be ffaf 183f 041b 98bc
000003f0: 8d83 c3bc 1800 2a3e 2f4c 85bc 53a2 a03e

model.2.bias f4 [256]
8.5321866e-05 -0.072377495 -0.037632108 -0.007677327 0.121953934 -0.010080325 -0.007685396 -0.008700711
-0.0014908669 0.031998556 -0.0018804006 -0.022419969 0.017102648 -0.01601167 -0.026452906 -0.0006502513
0.010534462 -0.0010168356 0.025416054 0.02735129 0.011995422 -0.0015285639 0.047989458 -0.009381275
0.016899977 -0.029040532 0.24851172 -0.1366429 -0.019307368 0.027523465 -0.04733943 0.01004815
-0.11313002 -0.0336933 0.006474726 0.011060278 -0.12322063 0.020347226 0.020566488 -0.007320763
-0.017918667 0.05186402 0.055219367 -0.024876617 -0.0018915127 -0.0014022903 -0.019349098 0.016947174
-0.023756457 0.005871622 -0.039873276 -0.00082096836 0.001754081 -0.06434846 0.21416505 -0.01188467
-0.0063668103 0.016732607 -0.057545617 0.0318694 0.001074026 0.012204286 0.23717308 0.030645268
-0.046165798 0.017673098 0.011480138 -0.0120983785 -0.0469159 -0.010154897 0.03799126 0.009380578
-0.004569832 -0.051355686 -0.002161893 -0.02073584 0.048880275 0.12213579 0.04845586 0.015675716
-0.1643371 -0.011052154 0.030234812 0.010713601 0.010303125 0.0010768736 0.025178438 0.0015702597
-0.003010491 0.0030662601 -0.05235348 -0.0010973187 -0.03597811 0.07720271 0.0061890176 -0.0012448635
-0.10545658 -0.008104107 -0.012207451 0.03979978 -0.04069238 -0.07418556 0.017801754 0.0037081363
-0.08345169 0.25935927 -0.08024935 0.018060999 -0.026996396 0.005526673 -0.030294746 -0.011717783
0.032701213 0.06920107 -0.0038935386 0.0026113957 0.0054404507 -0.033679347 0.020115929 0.02740242
0.008558099 0.07969114 0.020174202 -0.012134794 0.019110331 0.01763491 -0.012829856 -0.0060441648
-0.017834501 -0.10890907 0.008552205 0.03308928 -0.030634845 -0.008112927 -0.011567686 -0.01261307
-0.022039263 -0.002352079 0.019575948 -0.09605235 0.0042743078 -0.0012090637 -0.014311473 -0.007859482
0.025081191 0.02777966 -0.015460679 0.009265397 0.0073120734 -0.023517877 -0.009596789 -0.025696993
0.009789827 -0.008397824 -0.003019191 -0.0013368576 0.0052607455 -0.25892255 0.0015020214 0.006297599
-0.020906506 0.061396435 -0.0035585011 0.032943092 0.025313392 -0.017725086 0.0013152268 -0.008356293
-0.042223446 0.018620767 0.013883473 0.03842928 0.03898314 -0.017074041 -0.02883479 -0.032163016
-0.0012115146 0.010652741 0.025973842 -0.0004592274 0.02813574 0.021363446 0.010440698 -0.054259922
0.010920648 0.012586456 -0.018062428 -0.0633063 0.09351371 -0.00034933936 0.0024414312 0.013168792
-0.009921168 -0.0045235846 0.03381402 -0.008657584 0.056209233 0.0065539144 0.01737706 -0.022517174
-0.0039926926 -0.0078552775 -0.03487686 0.0026982455 0.021090452 0.006522665 0.009228713 -0.011288927
-0.03084053 0.011311071 0.00027679635 0.016250366 -0.033608716 0.048667725 -0.015178901 -0.0069020274
0.03124736 -0.03232182 -0.00920482 -0.004492556 -0.05747022 -0.028394379 0.006590603 0.011523054
-0.018879306 0.035228185 -0.08962874 -0.0005289755 -0.0031220333 0.056400824 0.012230071 -0.0076458035
0.02051718 0.048811954 0.038880322 0.017858027 -0.014215515 0.032785356 0.032398038 0.03987437
-0.0068659177 0.012131757 0.02696246 0.0065242555 -0.013769791 0.014996462 0.0018975859 0.011307843
0.006824424 -0.026280893 0.0036079893 0.025985949 -0.013381903 -0.09941799 0.02573478 0.015324411
00000000: d4ee b238 a73a 94bd 2024 1abd 1692 fbbb
00000010: fcc2 f93d f327 25bc c6d5 fbbb 6d8d 0ebc
00000020: 3169 c3ba eb10 033d c677 f6ba 15aa b7bc
00000030: da1a 8c3c e82a 83bc c4b3 d8bc a075 2aba
00000040: bc98 2c3c 5747 85ba 5435 d03c d00f e03c
00000050: 7288 443c 185a c8ba 9890 443d ebb3 19bc
00000060: d271 8a3c 69e6 edbc db79 7e3e 1eec 0bbe
00000070: 7c2a 9ebc e478 e13c fde6 41bd ffa0 243c
00000080: b6b0 e7bd fc01 0abd f029 d43b 2b36 353c
00000090: 195b fcbd 3aaf a63c 0d7b a83c 03e3 efbb
000000a0: 2bca 92bc 5e6f 543d b42d 623d 0cca cbbc
000000b0: a2ec f7ba 0ecd b7ba 0082 9ebc cdd4 8a3c
000000c0: e79c c2bc bc66 c03b 2952 23bd 4136 57ba
000000d0: 31e9 e53a 20c9 83bd 154e 5b3e ebb7 42bc
000000e0: ada0 d0bb d212 893c f4b4 6bbd 7d89 023d
000000f0: 55c6 8c3a 7cf4 473c 80dd 723e c90b fb3c
00000100: 5918 3dbd 2cc7 903c 3017 3c3c 4738 46bc
00000110: e32a 40bd ba60 26bc b99c 1b3d ffb0 193c
00000120: 87be 95bb 575a 52bd 8cae 0dbb 35de a9bc
00000130: af36 483d 5422 fa3d a779 463d 5c6a 803c
00000140: fc47 28be 1814 35bc ffae f73c 1988 2f3c
00000150: 70ce 283c e225 8d3a 0343 ce3c 2cd1 cd3a
00000160: a84b 45bb 4ff3 483b 9a70 56bd e8d3 8fba
00000170: c85d 13bd 741c 9e3d 3ecd ca3b b02a a3ba
00000180: 9ff9 d7bd 17c7 04bc c301 48bc 1805 233d
00000190: 0ead 26bd 99ee 97bd fcd4 913c 3404 733b
000001a0: b8e8 aabd bdca 843e c559 a4bd a9f4 933c
000001b0: 8c27 ddbc 1819 b53b b02c f8bc f2fb 3fbc
000001c0: b5f1 053d 4ab9 8d3d bd2a 7fbb f323 2b3b
000001d0: cf45 b23b 5bf3 09bd 29ca a43c 0a7b e03c
000001e0: 4537 0c3c 1c35 a33d 5e44 a53c 04d1 46bc
000001f0: 458d 9c3c 1677 903c 5134 52bc 210e c6bb
00000200: a919 92bc b80b dfbd 8c1e 0c3c a088 073d
00000210: edf5 fabc 15ec 04bc 6486 3dbc 0da7 4ebc
00000220: af8b b4bc 5625 1abb bd5d a03c 18b7 c4bd
00000230: 7e0f 8c3b 7279 9eba ab7a 6abc 0fc5 00bc
00000240: 1277 cd3c 2b92 e33c ca4e 7dbc e4cd 173c
00000250: 1e9a ef3b 90a8 c0bc da3b 1dbc 8082 d2bc
00000260: 8365 203c 0797 09bc 9fdd 45bb 7f39 afba
00000270: 5562 ac3b 7f91 84be 7adf c43a 175c ce3b
00000280: 1f44 abbc d47a 7b3d be35 69bb 56ef 063d
00000290: 085e cf3c 3334 91bc b063 ac3a d5e8 08bc
000002a0: 7ef2 2cbd 948a 983c 8277 633c 0568 1d3d
000002b0: c9ac 1f3d dcde 8bbc f036 ecbc 5ebd 03bd
000002c0: afcb 9eba d688 2e3c 18c7 d43c 75c4 f0b9
000002d0: ec7c e63c 6502 af3c 760f 2b3c a73f 5ebd
000002e0: 85ec 323c 6c37 4e3c a8f7 93bc bca6 81bd
000002f0: 1e84 bf3d 8927 b7b9 6b00 203b ebc1 573c
00000300: 658c 22bc 943a 94bb 9280 0a3d 8ad8 0dbc
00000310: a73b 663d 38c2 d63b 565a 8e3c f075 b8bc
00000320: 22d5 82bb 6cb3 00bc 0adb 0ebd 0cd5 303b
00000330: e2c5 ac3c 14bc d53b 0734 173c 31f5 38bc
00000340: 47a5 fcbc 1252 393c fa1e 9139 7d1f 853c
00000350: 4ba9 09bd cf57 473d edb0 78bc 672a e2bb
00000360: 77fa ff3c e263 04bd d0cf 16bc 4b36 93bb
00000370: e565 6bbd 549b e8bc fcf5 d73b 31cb 3c3c
00000380: c6a8 9abc 6e4b 103d 468f b7bd f2aa 0aba
00000390: 079b 4cbb 8d04 673d a360 483c a689 fabb
000003a0: a513 a83c 0bef 473d f940 1f3d ff4a 923c
000003b0: 31e8 68bc f049 063d ceb3 043d 4f53 233d
000003c0: 7efb e0bb 47c4 463c 60e0 dc3c 6cc9 d53b
000003d0: b19a 61bc b8b3 753c 6bb8 f83a 8844 393c
000003e0: 6b9f df3b 074b d7bc 0474 6c3b 7ce0 d43c
000003f0: c53f 5bbc a99b cbbd bfd1 d23c 3d13 7b3c

model.4.weight f4 [4, 256]
-0.0808494 0.0030405126 -0.012281913 0.013866451 -0.002740583 -0.02214164 0.026642317 -0.014529892
0.0011105308 0.05001921 0.0029022782 -0.024625307 -0.005240297 0.065010935 0.2149186 0.03827255
0.02317294 -0.019812474 0.05114814 0.061829098 -0.027768094 0.016431458 0.019382372 -0.007975708
-0.030180132 -0.04266262 0.0134934 0.017574422 -0.051417675 0.08437962 -0.015495184 0.06662958
-0.0009313425 0.024553051 0.008211609 -0.014749657 -0.013011032 -0.01873797 -0.017183255 0.15460716
-0.007319058 -0.03789477 -0.01255034 0.04520463 -0.0118090445 0.017618895 -0.026460314 0.020021725
0.017009977 0.041056845 0.0063218144 -0.015280857 -0.0027011703 -0.006931262 0.014774455 0.007969895
0.024515213 0.098735504 -0.020158373 0.012374845 -0.24527393 -0.03630712 -0.004685598 0.045510117
-0.018655485 0.07205514 0.06927337 -0.03201408 0.005520151 -0.31848624 -0.0008494017 -0.016061332
-0.19397151 -0.031564966 -0.1432789 0.0808395 -0.05085038 -0.025788264 0.024021463 -0.009918708
-0.05291665 0.022708515 -0.010589382 -0.014562451 -0.0708207 -0.0116397375 -0.0076914183 -0.022921486
-0.039522354 0.11971322 0.020905899 -0.06734334 0.016355526 -0.0021737774 -0.044645727 -0.020730708
0.00013454215 -0.010492794 0.26540846 0.0013836025 -0.025547782 0.0005849245 -0.296352 -0.19833332
-0.038396083 -0.0131123355 -0.010976749 -0.1657367 -0.042686954 0.083580725 0.025363531 0.027003873
0.0031319857 -0.038794506 0.06698078 0.03349867 -0.07685061 0.043648865 0.0018655641 -0.028923279
0.009441591 0.017012987 -0.01655902 -0.041987747 0.032622475 -0.104241796 -0.016024778 0.05274186
0.009913983 0.0008951262 0.025413062 -0.058616832 0.051353805 -0.019445626 -0.12460179 -0.024626374
0.16202986 -0.024570942 0.0039571137 -0.033493273 -0.05296742 0.044186525 0.034672197 0.14690118
0.042897776 -0.019809395 0.16034591 -0.0093252305 -0.10351702 -0.013887949 -0.018822588 -0.030460808
0.0005683596 0.1333956 0.016018234 -0.10581408 -0.0531526 -0.024124207 0.002666338 -0.012811743
0.029952874 -0.06642474 -0.20951523 0.007654807 -0.11745478 0.027599277 -0.21140508 -0.016789235
-0.020532541 -0.0024630078 -0.14138205 -0.03818119 -0.03280044 -0.020962402 -0.021898752 -0.0062254043
0.1352095 0.008003824 -0.14952174 0.03672574 -0.0056224638 -0.052560303 -0.021967798 -0.046991684
0.001146364 -0.055041015 0.035981428 -0.008617138 -0.012597819 -0.10709177 0.039689135 0.012411188
-0.09224337 -0.10541051 -0.015345655 -0.13638791 0.012961754 0.017730756 -0.009685287 0.03085269
-0.05851991 0.012341757 -0.018315468 0.0074256235 0.0017764282 -0.009533897 -0.14177641 0.0822457
0.15277751 0.15950952 -0.028953914 -0.00034078496 0.030438242 -0.05490357 0.03802799 -0.019480987
0.032982923 -0.031795032 -0.035381928 -0.016716788 -0.06451676 -0.027274633 0.30666897 -0.018044906
-0.063974306 -0.004906194 0.04401099 -0.07184596 0.41249585 0.004991227 0.017235253 -0.09492511
-0.016708054 -0.022076152 -0.025243523 -0.054091398 -0.0018562733 -0.020969747 0.0028933324 -0.060484935
0.10318307 0.076984294 0.019520639 -0.1385135 -0.023876157 -0.13933669 0.111760475 0.0074615357
0.033785783 -0.07489904 -0.053968523 0.048864547 0.4598318 0.0012864935 -0.002618138 -0.5457881
00000000: 5f94 a5bd 5643 473b 143a 49bc 1c30 633c
00000010: 5a9b 33bb 6262 b5bc fd40 da3c c90e 6ebc
00000020: 3b8f 913a f1e0 4c3d 2634 3e3b 03bb c9bc
00000030: ccb6 abbb 7424 853d 9f13 5c3e adc3 1c3d
00000040: 2dd5 bd3c c54d a2bc b680 513d 8240 7d3d
00000050: ea79 e3bc 449b 863c c8c7 9e3c 8bac 02bc
00000060: 533c f7bc 00bf 2ebd 6c13 5d3c 3cf8 8f3c
00000070: 579b 52bd 39cf ac3d 83df 7dbc 1775 883d
00000080: 5625 74ba 7b23 c93c fc89 063c 8ca8 71bc
00000090: 392c 55bc 5f80 99bc e6c3 8cbc 5751 1e3e
000000a0: b5d4 efbb 8c37 1bbd f19f 4dbc 7d28 393d
000000b0: b97a 41bc 8055 903c 4dc3 d8bc 9a04 a43c
000000c0: 8258 8b3c 392b 283d 3927 cf3b 8f5c 7abc
000000d0: 1e06 31bb a41f e3bb 8e10 723c 2a94 023c
000000e0: 21d4 c83c d735 ca3d 2c23 a5bc ddbf 4a3c
000000f0: 1729 7bbe c6b6 14bd a589 99bb d168 3a3d
00000100: 63d3 98bc a591 933d 32df 8d3d 3221 03bd
00000110: 62e2 b43b a110 a3be 62aa 5eba 0e93 83bc
00000120: 78a0 46be 444a 01bd b4b7 12be 2e8f a53d
00000130: 7d48 50bd e941 d3bc a9c8 c43c 1482 22bc
00000140: 21bf 58bd 3507 ba3c 167f 2dbc 5997 6ebc
00000150: 710a 91bd 99b4 3ebc 4b08 fcbb d7c5 bbbc
00000160: 31e2 21bd 342c f53d d942 ab3c 4eeb 89bd
00000170: 06fc 853c ef75 0ebb 70de 36bd 72d3 a9bc
00000180: e213 0d39 f8e9 2bbc 9ee3 873e ff59 b53a
00000190: 9549 d1bc 9e55 193a 73bb 97be e417 4bbe
000001a0: 3645 1dbd 1fd5 56bc d2d7 33bc e2b6 29be
000001b0: 84d8 2ebd 5f2c ab3d 2ec7 cf3c 3a37 dd3c
000001c0: 0042 4d3b fde6 1ebd 382d 893d e735 093d
000001d0: da63 9dbd 27c9 323d f285 f43a 83f0 ecbc
000001e0: e7b0 1a3c d25e 8b3c c8a6 87bc 58fb 2bbd
000001f0: 259f 053d b97c d5bd 6546 83bc d907 583d
00000200: 426e 223c e7a6 6a3a 0e2f d03c 3418 70bd
00000210: 5e58 523d 6f4c 9fbc 392f ffbd 40bd c9bc
00000220: 28eb 253e 0049 c9bc adaa 813b 3e30 09bd
00000230: 5ef4 58bd eefc 343d 6f04 0e3d 436d 163e
00000240: 94b5 2f3d 5047 a2bc b831 243e dac8 18bc
00000250: bb00 d4bd 488a 63bc d431 9abc f288 f9bc
00000260: f8fd 143a db98 083e ac38 833c 0db5 d8bd
00000270: 8ab6 59bd 21a0 c5bc bbbd 2e3b 58e8 51bc
00000280: bb5f f53c b209 88bd 298b 56be 2dd5 fa3b
00000290: 228c f0bd e117 e23c 937a 58be 9489 89bc
000002a0: dc33 a8bc 6a6a 21bb 75c6 10be e163 1cbd
000002b0: c159 06bd 58b9 abbc 0365 b3bc 7afe cbbb
000002c0: 5c74 0a3e 7922 033c 3a1c 19be bb6d 163d
000002d0: a53c b8bb 7949 57bd d0f5 b3bc 5a7a 40bd
000002e0: 9841 963a b072 61bd 4361 133d e52e 0dbc
000002f0: 1567 4ebc ee52 dbbd 1391 223d 4c58 4b3c
00000300: 18ea bcbd 77e1 d7bd 586c 7bbc 46a9 0bbe
00000310: 895d 543c 1740 913c 0aaf 1ebc c8be fc3c
00000320: 93b2 6fbd 1535 4a3c 520a 96bc a552 f33b
00000330: 0ad7 e83a 1034 1cbc d62d 11be 6f70 a83d
00000340: b571 1c3e 7756 233e c230 edbc 62ab b2b9
00000350: 9f59 f93c 91e2 60bd 3dc3 1b3d 9796 9fbc
00000360: 1a19 073d 823b 02bd a4ec 10bd a5f1 88bc
00000370: 5d21 84bd 0d6f dfbc b703 9d3e e9d2 93bc
00000380: f604 83bd 23c4 a0bb de44 343d fa23 93bd
00000390: a832 d33e 728d a33b f230 8d3c 1968 c2bd
000003a0: 54df 88bc 0cd9 b4bc 81cb cebc f18e 5dbd
000003b0: 324e f3ba bfc8 abbc 109e 3d3b 0dbf 77bd
000003c0: a551 d33d f1a9 9d3d bfe9 9f3c 7cd6 0dbe
000003d0: ee97 c3bc 47ae 0ebe ade2 e43d e67f f43b
000003e0: f662 0a3d ab64 99bd 190e 5dbd 3126 483d
000003f0: 136f eb3e 8f9f a83a 1195 2bbb c5b8 0bbf

model.4.bias f4 [4]
-0.0015674324 0.0023335675 0.004726273 0.001491641
00000000: 4e72 cdba c4ee 183b dade 9a3b 2b83 c33a
